GazeFollow
__________________________________________________________________________________________________
Layer (type)                    Output Shape         Param #     Connected to
==================================================================================================
head_image (InputLayer)         (None, 224, 224, 3)  0
__________________________________________________________________________________________________
vgg16 (Model)                   (None, 7, 7, 512)    14714688    head_image[0][0]
__________________________________________________________________________________________________
gaze_flatten1 (Flatten)         (None, 25088)        0           vgg16[1][0]
__________________________________________________________________________________________________
gaze_dense1 (Dense)             (None, 128)          3211264     gaze_flatten1[0][0]
__________________________________________________________________________________________________
batch_normalization_2 (BatchNor (None, 128)          512         gaze_dense1[0][0]
__________________________________________________________________________________________________
head_location (InputLayer)      (None, 2, 1, 1)      0
__________________________________________________________________________________________________
activation_2 (Activation)       (None, 128)          0           batch_normalization_2[0][0]
__________________________________________________________________________________________________
head_location_flattened (Flatte (None, 2)            0           head_location[0][0]
__________________________________________________________________________________________________
merged_gaze_features (Concatena (None, 130)          0           activation_2[0][0]
                                                                 head_location_flattened[0][0]
__________________________________________________________________________________________________
gaze_dense2 (Dense)             (None, 300)          39000       merged_gaze_features[0][0]
__________________________________________________________________________________________________
batch_normalization_3 (BatchNor (None, 300)          1200        gaze_dense2[0][0]
__________________________________________________________________________________________________
activation_3 (Activation)       (None, 300)          0           batch_normalization_3[0][0]
__________________________________________________________________________________________________
gaze_dense3 (Dense)             (None, 250)          75000       activation_3[0][0]
__________________________________________________________________________________________________
input_image (InputLayer)        (None, 224, 224, 3)  0
__________________________________________________________________________________________________
batch_normalization_4 (BatchNor (None, 250)          1000        gaze_dense3[0][0]
__________________________________________________________________________________________________
vgg16-hybrid1365 (Model)        (None, 14, 14, 512)  14714688    input_image[0][0]
__________________________________________________________________________________________________
activation_4 (Activation)       (None, 250)          0           batch_normalization_4[0][0]
__________________________________________________________________________________________________
saliency_conv1 (Conv2D)         (None, 14, 14, 1)    512         vgg16-hybrid1365[1][0]
__________________________________________________________________________________________________
gaze_dense4 (Dense)             (None, 196)          49000       activation_4[0][0]
__________________________________________________________________________________________________
batch_normalization_1 (BatchNor (None, 14, 14, 1)    4           saliency_conv1[0][0]
__________________________________________________________________________________________________
batch_normalization_5 (BatchNor (None, 196)          784         gaze_dense4[0][0]
__________________________________________________________________________________________________
activation_1 (Activation)       (None, 14, 14, 1)    0           batch_normalization_1[0][0]
__________________________________________________________________________________________________
activation_5 (Activation)       (None, 196)          0           batch_normalization_5[0][0]
__________________________________________________________________________________________________
saliency_map_flattened (Flatten (None, 196)          0           activation_1[0][0]
__________________________________________________________________________________________________
combined_heatmaps (Multiply)    (None, 196)          0           activation_5[0][0]
                                                                 saliency_map_flattened[0][0]
__________________________________________________________________________________________________
output_location (Dense)         (None, 25)           4925        combined_heatmaps[0][0]
==================================================================================================
Total params: 32,812,577
Trainable params: 17,540,299
Non-trainable params: 15,272,278
__________________________________________________________________________________________________
None
Tensor("output_location/Softmax:0", shape=(?, 25), dtype=float32)
Epoch 1/100
…
